…
FORCE_EVAL: False
MAX_STEPS: 1000
NOGRAPHICS: False
NUM_EPISODES: 500
PRETRAIN: 5000
QUIET: False
RESUME: False
SAVE_EVERY: 10
LATEST: False
FILENAME: None
SAVE_DIR: saves
LOAD_FILE: False
DEVICE: cuda:0
FRAMEWORK: D4PG
AGENT_COUNT: 20
ACTOR_LEARN_RATE: 0.0005
CRITIC_LEARN_RATE: 0.00075
BATCH_SIZE: 128
BUFFER_SIZE: 500000
ACTION_SIZE: 4
STATE_SIZE: 33
C: 300
E: 0.2
E_DECAY: 1
E_MIN: 0.05
GAMMA: 0.99
ROLLOUT: 5
TAU: 0.0005
UPDATE_TYPE: hard
NUM_ATOMS: 100
VMIN: 0
VMAX: 0.3
ATOMS: tensor([… device='cuda:0')
T_STEP: 0
EPISODE: 1
MEMORY: <buffers.ReplayBuffer object at 0x000002E25114F6D8>
ACTOR: ActorNet(
  (fc1): Linear(in_features=33, out_features=400, bias=True)
  (fc2): Linear(in_features=400, out_features=300, bias=True)
  (output): Linear(in_features=300, out_features=4, bias=True)
)
ACTOR_TARGET: ActorNet(
  (fc1): Linear(in_features=33, out_features=400, bias=True)
  (fc2): Linear(in_features=400, out_features=300, bias=True)
  (output): Linear(in_features=300, out_features=4, bias=True)
)
ACTOR_OPTIM: Adam (
Parameter Group 0
    amsgrad: False
    betas: (0.9, 0.999)
    eps: 1e-08
    lr: 0.0005
    weight_decay: 0.0001
)
CRITIC: CriticNet(
  (fc1): Linear(in_features=33, out_features=400, bias=True)
  (fc2): Linear(in_features=404, out_features=300, bias=True)
  (output): Linear(in_features=300, out_features=100, bias=True)
)
CRITIC_TARGET: CriticNet(
  (fc1): Linear(in_features=33, out_features=400, bias=True)
  (fc2): Linear(in_features=404, out_features=300, bias=True)
  (output): Linear(in_features=300, out_features=100, bias=True)
)
CRITIC_OPTIM: Adam (
Parameter Group 0
    amsgrad: False
    betas: (0.9, 0.999)
    eps: 1e-08
    lr: 0.00075
    weight_decay: 0.0001
)
