ACTOR_LEARN_RATE: 0.001
CRITIC_LEARN_RATE: 0.001
BATCH_SIZE: 128
BUFFER_SIZE: 300000
DEVICE: cuda:0
FRAMEWORK: D4PG
T_STEP: 0
EPISODE: 1
C: 500
_E: 0.3
E_DECAY: 1
E_MIN: 0.05
STATE_SIZE: 33
ACTION_SIZE: 4
AGENT_COUNT: 20
ROLLOUT: 5
GAMMA: 0.99
TAU: 0.0005
UPDATE_TYPE: hard
VMIN: 0
VMAX: 0.2
NUM_ATOMS: 75
ATOMS: tensor([… device='cuda:0')
MEMORY: <buffers.ReplayBuffer object at 0x000001F564232668>
ACTOR: ActorNet(
  (fc1): Linear(in_features=33, out_features=400, bias=True)
  (fc2): Linear(in_features=400, out_features=300, bias=True)
  (output): Linear(in_features=300, out_features=4, bias=True)
)
ACTOR_TARGET: ActorNet(
  (fc1): Linear(in_features=33, out_features=400, bias=True)
  (fc2): Linear(in_features=400, out_features=300, bias=True)
  (output): Linear(in_features=300, out_features=4, bias=True)
)
ACTOR_OPTIM: Adam (
Parameter Group 0
    amsgrad: False
    betas: (0.9, 0.999)
    eps: 1e-08
    lr: 0.001
    weight_decay: 0.0001
)
CRITIC: CriticNet(
  (fc1): Linear(in_features=33, out_features=400, bias=True)
  (fc2): Linear(in_features=404, out_features=300, bias=True)
  (output): Linear(in_features=300, out_features=75, bias=True)
)
CRITIC_TARGET: CriticNet(
  (fc1): Linear(in_features=33, out_features=400, bias=True)
  (fc2): Linear(in_features=404, out_features=300, bias=True)
  (output): Linear(in_features=300, out_features=75, bias=True)
)
CRITIC_OPTIM: Adam (
Parameter Group 0
    amsgrad: False
    betas: (0.9, 0.999)
    eps: 1e-08
    lr: 0.001
    weight_decay: 0.0001
)
